vit/model_weights/classifier.pth (torch, 4714 bytes, 2 tensors)

classifier.0.weight f4 [4, 192]
000000 fa 15 c2 3c 4e 54 94 bd a4 a6 1a bc c3 b2 97 bd
       0.02369212 -0.07242642 -0.009439144 -0.07407143
000010 9b ea 94 3d 01 88 f8 bb 45 1c 6a 3d 3b 56 9c bd
       0.0727131 -0.0075845723 0.057155866 -0.07633635
000020 6b 87 d4 3c 87 31 5b 3c 85 0e 8a 3d 05 dd 0e bd
       0.025943479 0.013378507 0.06741051 -0.03487875
000030 e4 12 8b bd f7 17 38 3d ec 44 33 3d 67 31 da bc
       -0.067907125 0.04494473 0.0437669 -0.026634885
000040 58 5c 5e bc 98 78 74 3d 33 a7 6a 3d 31 cd 21 3c
       -0.013571821 0.05968532 0.05728836 0.009875582
000050 01 5e 5e 3c cd 8e 06 bd 4a 60 57 bd 19 d0 25 3c
       0.013572217 -0.03285103 -0.052582063 0.010120415
000060 f7 22 82 3d 9d 26 21 3b 06 c7 04 bd c8 ac 21 bd
       0.06354325 0.0024589666 -0.032416366 -0.039471418
000070 83 25 89 bd bd 13 19 bc 84 ae b0 bc 2d 35 dc bc
       -0.06696608 -0.009343085 -0.02156759 -0.026880825
000080 d3 ed 3c 3d 67 4a b2 bb b8 96 04 bd 7a fd 83 3d
       0.046125244 -0.0054409984 -0.0323703 0.06444831
000090 0a 92 06 3d d7 ab 92 3d fe cf ba bb ee f7 61 bd
       0.032854117 0.07161682 -0.005701064 -0.055168085
0000a0 7f 9f 7f bd c0 25 0f 3c 8f b4 86 bc 8e ed 98 bd
       -0.062407967 0.008737028 -0.016443519 -0.07467185
0000b0 08 93 45 3d 22 b6 37 bd 46 77 ba 3c ac fa 19 bc
       0.048235923 -0.04485143 0.022761952 -0.009398144
0000c0 43 62 54 bd 81 82 42 3d 42 33 a7 bc 54 0c 95 bd
       -0.051851522 0.04748774 -0.020410184 -0.07277742
0000d0 22 30 f4 3c fe 99 67 bd ee 9a 29 3d a0 ab aa 3d
       0.029808108 -0.056543343 0.041407518 0.08333516
0000e0 bb c8 20 bc 37 92 8b 3c b6 b6 1c bd 2d d9 9f 3d
       -0.009813483 0.017037494 -0.038260184 0.07805095
0000f0 c5 34 8c 3d 1b 6c 10 bc 41 9e b9 bd 62 12 37 bd
       0.068460025 -0.008814837 -0.09063388 -0.044695266
000100 dd 53 85 3d 26 04 1c bd 62 9b 8e 3d ff f8 8f 3d
       0.06510136 -0.038089894 0.06963231 0.07029914
000110 3d f6 28 bc ad 3a dd 3c f3 64 aa 3d 22 74 8f 3b
       -0.010312614 0.027005518 0.08320036 0.004377858
000120 3a 82 aa 3c d2 fd 7d 3d cb ba ff bc 40 0c 70 bd
       0.02081405 0.06200964 -0.031217 -0.058605433
000130 38 39 1a 3d 9a e1 9a bd 0e c9 2b bd d8 af 95 3d
       0.037652224 -0.07562561 -0.041939788 0.0730893
000140 1a f1 47 3d 06 05 c4 bc a8 aa bf 3d 28 3a 26 3d
       0.048813917 -0.023928177 0.09358722 0.040582806
000150 d6 af 7a bd 8d ed c4 3c d7 e9 79 3d 12 ff 83 3d
       -0.061202846 0.024039054 0.061014023 0.06445135
000160 93 f5 78 3c a6 c6 fb 3b 3e 60 05 bb 71 05 d3 bc
       0.015195268 0.007683593 -0.0020351554 -0.02575943
000170 78 16 e7 bb 6d fc c9 bc 59 19 2b 3d b4 40 36 3d
       -0.007052239 -0.024656499 0.04177222 0.0444953
000180 53 21 82 3d 4f 6f 7f 3d 5e dc aa bd b9 5b 62 3d
       0.06354012 0.06236201 -0.08342813 0.055263255
000190 b5 66 66 bd 2c 83 2c 3d f4 e7 30 3d 7a 83 40 bd
       -0.056250293 0.042117283 0.043189958 -0.047000386
0001a0 ca 9e 97 3d 34 6b ef 3c 5e 1a 5d 3d 09 c4 c9 bc
       0.074033335 0.029225923 0.053980224 -0.02462961
0001b0 93 2d 3d 3d 34 33 fe 3c fa 0d 82 bd 84 3d d8 3c
       0.04618604 0.031030275 -0.06350322 0.02639652
0001c0 e3 fe 8d 3d 38 27 b7 bc fe 2f 91 3d cf 7c db 3d
       0.069333814 -0.022357568 0.07089232 0.10717165
0001d0 e1 9b b4 bb 07 40 a6 bd 7c ae ee bb 57 55 bb 3c
       -0.0055117463 -0.08117681 -0.0072839838 0.022867842
0001e0 cb 0f b5 3d c0 1e 9e bd 77 44 5a 3d 33 db 83 3d
       0.08840903 -0.07720709 0.05328795 0.06438293
0001f0 bd b0 02 bd e1 35 9b 3d 5b 81 5d bd 7a 02 8c bd
       -0.031906832 0.07578636 -0.05407844 -0.0683641
000200 e8 58 2a 3d 1e 14 41 3d 25 bc 81 3c c6 15 c1 bc
       0.041588694 0.047138326 0.015836785 -0.023569953
000210 1c 7f b9 bd ed c2 86 3c d0 13 4a bd 1d 9e 49 bd
       -0.09057447 0.01645037 -0.0493353 -0.049223054
000220 25 a5 53 bb 93 e7 9c 3d d3 59 7f bd 9d 0b 7a bd
       -0.0032294479 0.07661357 -0.062341522 -0.06104623
000230 5f 0b 9a 3d 4e 8b 68 3d fd b1 9a 3d a9 2e 7f 3d
       0.075217 0.056773476 0.0755348 0.062300358
000240 50 01 6a bd 97 18 9f bd 89 2f 99 3d 43 23 71 bd
       -0.057130158 -0.07768362 0.0747977 -0.05887152
000250 fa 85 9d bd 33 ca 95 bc 35 a2 b7 bd cd 9d cb bc
       -0.076915696 -0.018284893 -0.089664854 -0.024855519
000260 50 05 a3 3c 4a 40 fc bc 9b 92 a2 bc d7 d8 48 bd
       0.019899994 -0.030792374 -0.019845298 -0.04903492
000270 cf 44 47 3d 3f 20 08 bc 0d 95 8f bd cf e7 94 3d
       0.048649605 -0.008308469 -0.07010851 0.072707765
000280 b5 22 dd bd d3 f8 98 3b e4 a0 1c bc e3 69 4f bd
       -0.107976355 0.004668334 -0.009559844 -0.05063809
000290 50 51 9d bd f8 0d 2d 3d 9e 44 cd 3c 7d 6c 56 bc
       -0.07681525 0.04224965 0.025057133 -0.013087389
0002a0 41 8d 8d 3c 13 85 9a bd 4e a2 fd 3c a9 72 2e 3b
       0.01727927 -0.07544913 0.030961182 0.0026618636
0002b0 47 36 92 bd d0 82 89 3d 0a b4 a7 3c c3 be e1 bc
       -0.07139259 0.06714404 0.020471592 -0.027556783
0002c0 d8 28 5a 3d 0c cb 97 bd 6a 8e 9d bd 2a da 6b 3c
       0.053261608 -0.07411775 -0.07693179 0.014395276
0002d0 ad 37 84 bd 63 5f 1d 3c 5f d7 21 bd c0 43 a9 bd
       -0.06455932 0.0096052615 -0.039512035 -0.082648754
0002e0 5c 50 38 bc 06 8c 11 bd 35 83 39 bd 63 b6 9d 3d
       -0.011249628 -0.035533927 -0.045291144 0.07700803
0002f0 b1 79 e6 3c 29 79 4b bb 92 53 b8 3d f4 b6 83 3d
       0.028134199 -0.003104756 0.09000315 0.0643138
000300 5b 5b b1 3d 05 c0 4d bc 5f 18 79 3d b4 eb 39 bd
       0.08660003 -0.012557988 0.060814258 -0.0453908
000310 aa dd 5a 3c 2f 41 ab 3d 20 61 84 bd 8e 79 8d 3c
       0.013358513 0.08362042 -0.064638376 0.017269876
000320 23 07 a5 bd f4 75 83 bd 8c a3 30 3c e5 0f 9a bd
       -0.08058002 -0.06418982 0.01078118 -0.07522563
000330 f4 2f 9e bd 48 67 92 bd fd 31 44 3d 3b 0a 32 3d
       -0.0772399 -0.071486056 0.047899235 0.043466788
000340 68 26 da bb a2 f1 75 bd cb f1 ce bc a0 75 90 bd
       -0.0066574104 -0.060044892 -0.02526178 -0.07053685
000350 80 6c 1b 3d 3b cc 49 bd 1c fb ba 3d 8f c0 cc 3b
       0.03794527 -0.049267035 0.091299266 0.0062485407
000360 ec a7 8d 3d d8 22 62 bd 7e 0e e8 38 c5 49 90 3d
       0.06916794 -0.05520901 0.000110653215 0.070453204
000370 02 28 8b bd 1b 1c 43 3c 58 25 fb ba aa 81 82 3c
       -0.0679474 0.011908556 -0.001916091 0.01593097
000380 ec 24 5b 3d 71 a7 c9 bc d3 35 a0 3d 1d a5 5f bd
       0.05350201 -0.024615975 0.07822766 -0.054600824
000390 cb e8 d4 bc 27 b9 74 3d c2 24 8b 3d 46 98 b6 3d
       -0.02598991 0.059746888 0.0679412 0.089157626
0003a0 9a 22 23 3c 38 4b 88 bd 81 b6 a5 bc 03 48 96 bd
       0.00995698 -0.06654972 -0.020228626 -0.07337954
0003b0 0c e9 16 bd bc 6d 8a 3d 92 52 95 ba 7f 62 94 3c
       -0.036843345 0.067592114 -0.0011392406 0.018113373
0003c0 fa d1 83 bd 23 55 b9 3d 3f c9 a0 3c 1d 73 a2 3d
       -0.06436534 0.09049442 0.019627212 0.07932112
0003d0 5c 08 90 3c 3c 1e 2b 3d d7 ec 3b bb 8d 40 a2 3c
       0.017582111 0.04177688 -0.0028675103 0.01980617
0003e0 95 ef 95 bd ca a8 3d bd 27 11 8c bd 18 17 a3 3d
       -0.07321087 -0.046303548 -0.06839209 0.07963389
0003f0 7e 02 ad bd a6 63 1b 3d 61 5e 4a 3b af e6 a2 3d
       -0.08447741 0.03793683 0.0030879008 0.07954156

classifier.0.bias f4 [4]
000000 7d 94 7f 3d f4 2f 75 bd 30 46 86 bd 3f 4c 1c 3d
       0.06239747 -0.059860185 -0.06556356 0.03815865
